train.pth (torch, 6039 bytes, 6 tensors)

l1.weight f4 [8, 57]
000000 90 1d 9c be ed c5 5a bd 23 62 0c 3d 2e 15 40 3f
       -0.30491304 -0.053411413 0.034273278 0.7503232
000010 57 3f 2d 3f ff c8 85 3e 33 af 8f bd 2b 9f 40 3f
       0.67674774 0.2612991 -0.070158385 0.7524287
000020 24 da b1 3f 56 a2 37 bf 5d b8 0b bf 03 b9 ac be
       1.3894696 -0.7173208 -0.5457819 -0.33734903
000030 91 85 18 bf af fd 66 bf aa 72 fc 3e e5 64 2a 3f
       -0.59578806 -0.9023084 0.49306232 0.665602
000040 a4 54 32 3f e0 b4 53 be f5 52 d1 3e 6a 4f a0 3f
       0.696604 -0.20674467 0.40883604 1.2524235
000050 a6 ec 8e 3f 5c 15 aa 3e cf 94 d5 be 5b bb 21 3f
       1.1165969 0.3321942 -0.41715094 0.63176507
000060 1b 2e 27 bf 68 db 29 3f cf 5c 19 be b4 3e 4c 3f
       -0.65304726 0.6635041 -0.1497681 0.7978318
000070 dd e7 30 3f 2d e3 37 3f 2d 58 b5 be 5e c3 97 bf
       0.69103795 0.7183102 -0.35418835 -1.1856496
000080 09 cc 08 3f 41 0f c4 3e a4 ea c6 be cb 2c 01 3f
       0.5343633 0.38292888 -0.38850892 0.50458974
000090 23 72 5b 3d 7c ac 21 bf a4 3f 01 3f 90 64 d1 3e
       0.053575646 -0.63153815 0.5048773 0.40897036
0000a0 3d dd 56 bf a3 87 3f be df 0e 77 3e 03 72 56 3f
       -0.8393133 -0.18704085 0.24126767 0.8376772
0000b0 f9 8d 5e bf 97 a1 87 3f 67 66 65 be 99 e3 b1 be
       -0.86935383 1.0596188 -0.22402345 -0.34743956
0000c0 83 14 38 bf 84 20 72 be aa 58 b0 3e 59 45 56 3e
       -0.719063 -0.23645216 0.34442645 0.20924892
0000d0 40 f2 6b 3f 83 3a 90 3e 08 e5 8e be 03 45 01 be
       0.9216652 0.2816964 -0.27909112 -0.12623982
0000e0 b0 fe e6 3c 9b 11 27 3e af 23 6f 3e 93 01 d7 bd
       0.028197616 0.1631531 0.23353456 -0.10498347
0000f0 c1 76 0c 3d 68 a2 ec be 72 23 36 3e 34 11 64 3e
       0.03429294 -0.46217656 0.17786959 0.22272187
000100 7f 9c 72 bf ab 96 1b 3f 52 6b 5c 3f 3c 9c 45 bf
       -0.94770044 0.60776776 0.8610126 -0.7719152
000110 52 91 fe 3e 8f ca a2 3f 4c 87 b2 bc 1c 6c 8a 3e
       0.49720246 1.2718066 -0.02179303 0.27035606
000120 c9 09 50 3f 92 a0 a9 3e f7 e9 4f bf 94 58 a7 3e
       0.8126493 0.33130318 -0.8121638 0.32684767
000130 af 23 91 bf 59 07 92 3f 64 74 15 3f 8e 9d 55 bd
       -1.1339015 1.1408492 0.58380723 -0.05215221
000140 d2 ea 72 3e c3 99 45 bf b8 b2 dd 3e 2d b9 ef 3d
       0.2372239 -0.77187747 0.43300414 0.11705241
000150 0b 72 da 3e fb 05 cd 3e fd 42 7a 3e 98 c1 a9 3e
       0.42665133 0.40043625 0.24439617 0.33155513
000160 31 76 a5 3f 92 74 15 3f 91 93 d2 3e 08 fd d0 be
       1.2926694 0.58381 0.4112821 -0.40818048
000170 9b 5a 7c 3f 9a 57 d0 3d b2 bd 6e 3f 2e d8 6b 3f
       0.9857575 0.10172959 0.932582 0.9212674
000180 df 89 69 3f c6 de 92 3e c0 40 dc be db 34 9b bf
       0.91226 0.28685588 -0.4301815 -1.2125505
000190 7b 24 bd 3d 4e ce 41 bf f4 53 62 3f ba 32 ee be
       0.09235474 -0.7570542 0.8840935 -0.46523076
0001a0 5e 2a cb be f5 2a 3b 3e e9 7e 7a 3d c0 fc 0c 3f
       -0.3968076 0.18278106 0.061156187 0.55073166
0001b0 4a 39 ac 3d 0a cc 88 3f c8 37 9e 3e a7 d1 9e 3e
       0.084093645 1.0687268 0.30901933 0.31019327
0001c0 07 b5 78 be 96 0b 1d 3e 0c cd c5 3e 37 7a 51 3e
       -0.24287806 0.15336451 0.38633 0.20456778
0001d0 7b f7 6e 3e 3d 45 36 3d 4c 89 58 bd f6 9e 00 3f
       0.23336594 0.044499625 -0.05286531 0.50242555
0001e0 d4 d9 af 3c 8a c5 16 bf 4d ec 61 bf ff 42 d2 be
       0.021466173 -0.5889517 -0.8825119 -0.4106674
0001f0 c5 22 04 3f 06 01 a7 3d 1c a4 4d bf d8 70 4c 3e
       0.51615554 0.08154492 -0.80328536 0.19964921
000200 07 8c e4 3e ce ae 7a bd 6e cd 0e 3f c0 90 84 3f
       0.44638082 -0.061201863 0.5578221 1.0356674
000210 01 a2 eb bd 0c c5 82 3f 4a e1 84 bf 0a a4 af bd
       -0.11505509 1.0216384 -1.0381253 -0.0857621
000220 7b 13 7c 3e 1c 47 02 3f fa ac eb 3e 85 a0 32 3f
       0.24616806 0.50889754 0.46030408 0.69776183
000230 bd 9b 91 3e ac 3f 36 3f 36 58 10 3f 18 5c f1 3e
       0.2843913 0.71190906 0.563846 0.47140574
000240 5e c6 f4 3d dd fc c0 be 0d 73 88 bd 83 15 a0 bd
       0.11951898 -0.3769292 -0.06662569 -0.07816603
000250 d4 86 e2 3e d5 c3 e3 bd 7d 51 a3 3e 2b 2e 05 bf
       0.4424349 -0.11121336 0.31898108 -0.5202357
000260 2a 00 10 be a4 30 6e be 90 9c 39 3f d7 a8 92 3d
       -0.14062563 -0.23260742 0.7250452 0.0716111
000270 21 8a 2e 3f 9f 59 ec 3d 6c a7 65 3f 04 a7 a6 3e
       0.6817952 0.11540531 0.8970859 0.32549298
000280 1a 4e 6b 3e 3d 06 93 be e4 a3 88 3f 4a 96 ef 3e
       0.22979012 -0.28715697 1.0675015 0.4679435
000290 9d 87 7c be 9c c6 da 3e c3 c8 40 bf 48 e7 b5 3b
       -0.24661107 0.42729652 -0.7530634 0.0055512525
0002a0 11 6c 69 3e 31 79 80 3e 21 66 6d 3e f9 9e 03 bd
       0.2279513 0.25092462 0.2318349 -0.03213403
0002b0 80 40 73 bd c4 59 2d 3e 23 da 8a 3e 7a ab e9 3e
       -0.059387684 0.16928774 0.2711955 0.4563864
0002c0 c1 d0 e9 be 67 bc da 3c 94 5e 61 3f 65 55 8c bf
       -0.4566708 0.026701165 0.8803494 -1.096356
0002d0 62 c6 f3 be d6 14 78 3f 7c 7e 15 3f 7b 57 a5 3f
       -0.47612292 0.96906793 0.58396125 1.2917322
0002e0 1a 59 aa be ce 0f bc be c0 72 12 3f b6 ff 85 be
       -0.33271104 -0.36730808 0.57206345 -0.26171654
0002f0 07 5c b5 be 86 6b 7a 3e 12 7e 57 bf 4c ad 14 3f
       -0.35421774 0.2445508 -0.84176743 0.5807693
000300 ef cd 01 be a7 0d 10 be da df de be 6e 18 7f 3f
       -0.12676214 -0.14067708 -0.4353016 0.9964665
000310 bf 72 4d bf 97 0e c5 3c 68 c9 39 bf 3c fc 29 bf
       -0.80253214 0.024054809 -0.72572947 -0.66400504
000320 0f ac 0b bf 23 65 ad 3e a3 3f f3 be 66 39 76 3e
       -0.54559416 0.33866224 -0.47509488 0.24045333
000330 ed 33 c8 3d 28 ae 1a 3f a3 16 be be 50 36 8d 3c
       0.09775529 0.6042199 -0.37126645 0.017237812
000340 4e dc db be 12 ed 89 be d9 79 98 be 1b f2 1f 3f
       -0.42941517 -0.26938683 -0.29780462 0.624788
000350 6d c1 ad bd 13 6c 30 3f 1d d9 c9 3e 6e 73 54 3f
       -0.08484159 0.6891491 0.39423457 0.8298863
000360 03 5c a6 bf 84 ad 4e 3f 5c 29 ae 3f 7f f2 86 be
       -1.299683 0.80733514 1.3606372 -0.26356885
000370 87 8d 45 bd 8b 7f bc be f8 9f ec be 4c 26 8b bf
       -0.048230674 -0.36816058 -0.46215796 -1.0871062
000380 d5 a8 c1 3e 01 fb dd 3e e0 6c 5a be 32 29 25 3e
       0.3782412 0.43355563 -0.21330595 0.16128996
000390 13 a7 3f be 17 77 be 3c 67 65 b3 3d 12 1f 9a be
       -0.18716078 0.023250146 0.08759575 -0.3010183
0003a0 b4 72 56 be 14 06 14 3f 4a b4 05 3f 00 a9 57 bf
       -0.20942193 0.57821774 0.52228224 -0.8424225
0003b0 8e 04 6d bf d2 52 8e 3f 13 9f 2b 3f 45 ee a9 3e
       -0.92585075 1.1119025 0.67039603 0.33189598
0003c0 55 85 b8 3e dc c1 9c 3f e0 8c 1e 3f d1 c3 fc 3c
       0.36039224 1.2246661 0.6193371 0.030855091
0003d0 20 2c d5 bd 3d b9 74 bf 22 63 1b be 0f a2 5b bf
       -0.10408807 -0.9559515 -0.15174535 -0.85794157
0003e0 48 55 8d be 37 4f 09 be 04 37 2f 3f c9 d3 3d 3f
       -0.27604127 -0.13409124 0.6844332 0.74151284
0003f0 45 d4 30 3f ab 73 86 3f 4e 47 2a be 95 c4 86 3f
       0.690739 1.0504049 -0.16628763 1.0528742

l1.bias f4 [8]
000000 fd e3 30 3f 8b 9b 45 3f e0 b4 8c 3f 0c 81 4d 3f
       0.6909788 0.77190465 1.0992699 0.80275035
000010 9a b6 5f 3f a5 b8 2b 3f 7f 63 39 3f c3 ff 43 3f
       0.87388 0.6707862 0.72417444 0.76562136

l2.weight f4 [8, 8]
000000 d0 bc 30 bd 31 68 b0 3d f1 f3 a8 be 79 98 ff 3d
       -0.043148816 0.08613623 -0.32998613 0.12480254
000010 45 e1 07 bc 5e df 27 be 79 1b b4 be 24 67 9d bd
       -0.008293455 -0.16393802 -0.3517721 -0.07685688
000020 c4 1c ba 3e 2a 30 e6 3f 67 cf ad be 6d f7 16 bf
       0.3635007 1.7983449 -0.33947298 -0.5897129
000030 e1 0e f5 3f 95 9c 8c bf be d7 7b 3f 9d 82 28 3e
       1.9145166 -1.0985285 0.9837607 0.16456075
000040 cd 5e c0 3f c1 c9 82 bf 60 51 c9 3f 94 93 c8 3e
       1.5028931 -1.021782 1.5727959 0.39175093
000050 48 8a a0 bf 51 32 69 3f e4 eb bf 3f e0 50 8c 3f
       -1.25422 0.910924 1.4993863 1.0962181
000060 cc cb 97 bf dc 96 80 3f 3c e1 86 3f a0 4c c7 3f
       -1.1859069 1.0046039 1.0537486 1.5570259
000070 24 48 b1 3f 9d e9 22 3f f5 76 d3 bf 88 ac 94 3f
       1.385014 0.63637716 -1.6520678 1.1615152
000080 b0 d4 ca 3f 00 8e c1 3f 4d 41 36 bf 08 d6 e1 3e
       1.5846157 1.512146 -0.7119339 0.44108605
000090 a1 36 85 bf 04 23 ac 3f 56 17 cf 3f fc 13 8e be
       -1.0407296 1.3448186 1.6178997 -0.27749622
0000a0 c6 03 30 bf a7 5f 9e 3f 86 09 62 3f 7a f6 50 bf
       -0.6875576 1.2372941 0.8829578 -0.81626093
0000b0 de 73 2a bf 1f 62 42 bf ad 78 69 3d 83 c9 c9 3f
       -0.6658305 -0.7593097 0.05699985 1.5764621
0000c0 e7 00 3a 3f 9e 9d 68 3f e6 c2 32 3f 24 a7 c0 bf
       0.72657627 0.90865505 0.6982864 -1.5051007
0000d0 6a b0 dc 3e e4 8f e0 3f 7a 14 79 bf 57 54 ad 3f
       0.43103343 1.7543912 -0.9729687 1.3541363
0000e0 16 2e 47 bf a9 6c 3e bf a8 46 10 40 a6 cb 04 be
       -0.77804697 -0.7438455 2.2543125 -0.1296831
0000f0 23 58 cb 3f 8b c4 c7 be b7 44 a8 3f 5b 48 9f 3f
       1.5886272 -0.39017138 1.314597 1.2443956

l2.bias f4 [8]
000000 f3 f3 79 be c5 be 65 3e 97 22 87 3e 7c 55 11 3f
       -0.24409465 0.22436054 0.26393577 0.56771064
000010 f8 fe 3c 3f f9 ae b4 3e b6 c5 c9 bd ab 4b da 3e
       0.7382655 0.35289744 -0.098521635 0.42635855

l3.weight f4 [20, 8]
000000 92 b4 b5 bc 53 18 8b be b6 f5 d1 bd 44 a6 11 c0
       -0.02218083 -0.27166995 -0.10251944 -2.275773
000010 04 a2 3f 3f 55 ae bc bf 76 09 2a 3f ea 42 e7 bf
       0.7485659 -1.4740702 0.66420686 -1.8067296
000020 b2 d2 b5 bd 90 ad d8 bf e2 0f a8 3e 70 8c 2e bf
       -0.088780776 -1.6927967 0.32824618 -0.6818304
000030 14 9b b8 be 31 ec e0 3d 30 0a 7f 3e 50 fa b5 3e
       -0.36055815 0.1098255 0.2490623 0.35542536
000040 70 3b 86 be 51 90 c2 bf 5c 19 a1 3e 7a 15 fc 3e
       -0.26217222 -1.5200292 0.3146466 0.49235135
000050 a1 f0 f2 3e 77 da db bf 37 98 de bf 29 e3 06 bf
       0.4744921 -1.7176045 -1.7390202 -0.5269037
000060 cd 16 9c be d5 8f 01 3f 2d 70 04 c0 bd 01 2c 3e
       -0.30486146 0.50610095 -2.0693467 0.16797538
000070 ef 50 d2 bf 00 dd b7 be ad 5c 1d bf 26 98 68 3f
       -1.6430949 -0.35910797 -0.61469537 0.9085716
000080 95 d9 eb 3b 18 68 92 bf 95 35 92 be 92 cd 15 3f
       0.0071975687 -1.1438017 -0.28556505 0.585168
000090 9a 11 78 bf 88 93 b7 bf a2 2d ef 3e aa 07 6a 3e
       -0.9690186 -1.4341898 0.46714503 0.22854486
0000a0 ab 69 a0 bd c2 2f 78 3f c8 68 c5 3e e7 ea b6 bf
       -0.078326546 0.9694787 0.38556504 -1.4290437
0000b0 0c 96 0f 3f bd a8 99 bf dc e5 cf bf 84 e8 03 c0
       0.5608833 -1.200462 -1.6242023 -2.0610666
0000c0 4a 5f bb be 21 84 a8 bf 8a 7b 0e 3f 16 a0 14 c0
       -0.36596137 -1.3165323 0.55657256 -2.3222709
0000d0 62 df a2 3e ac f2 cf bf ef c5 3d 3d 35 a8 61 3e
       0.31811053 -1.6245933 0.046331342 0.22036822
0000e0 71 b4 32 be bd 52 4b bd 4e 7d b8 bf 69 0f 19 3f
       -0.17451645 -0.049639452 -1.441324 0.5978914
0000f0 6f a2 f7 3e 53 c2 06 c0 46 52 0a be 2e ad bd bf
       0.48366114 -2.1056106 -0.13507947 -1.4818475
000100 62 55 98 bd 89 cd 64 bf 33 80 6e 3f 77 a1 0b c0
       -0.074381605 -0.8937612 0.93164366 -2.18173
000110 d5 7a 4a 3f f8 92 6d bf 65 6c 06 c0 48 d3 71 bf
       0.79093677 -0.9280238 -2.1003659 -0.94463015
000120 9f 50 bb 3c e3 86 67 3f dc 39 78 bf f4 e3 72 bf
       0.022865592 0.90440196 -0.96963286 -0.9487908
000130 98 2b a7 3e 56 c4 ba be 4d 72 f9 bf 7f 97 01 3f
       0.32650447 -0.36477917 -1.9488007 0.5062179
000140 d1 62 a0 be 4e db 0f bf 7e 9f a9 3e c2 64 79 be
       -0.3132539 -0.5619401 0.33129495 -0.24354842
000150 73 e0 e4 bd 80 fc d5 bf cd 70 2b 3f 07 62 b2 bf
       -0.11175623 -1.6717682 0.66968995 -1.3936166
000160 86 9b 64 be a2 94 17 3f 9b ff c0 bf ff 01 0a 3f
       -0.22324952 0.5921117 -1.5078005 0.53909296
000170 ca 5a 98 be 42 82 0a c0 df 56 e4 bf b7 ec 5b 3e
       -0.29756767 -2.1642003 -1.7839011 0.21477018
000180 99 9a 88 bd 02 7c 60 3f cd d2 ea be d4 02 65 bf
       -0.06670112 0.8768922 -0.45863953 -0.8945744
000190 05 d0 56 3e aa 1c 08 c0 42 14 be 3e 69 0a 38 bf
       0.2097779 -2.1267495 0.3712483 -0.71890885
0001a0 a6 2a 9f 3d 43 d7 86 3e e0 ce 9f bf f5 78 bf 3e
       0.077718064 0.26336107 -1.2485008 0.3739697
0001b0 01 2a 2a bf c1 0f 9b 3e 3f 9c 8f 3e d4 15 f6 be
       -0.6647034 0.30285457 0.28048894 -0.4806353
0001c0 cb e4 4f 3e 08 41 65 bc cc 22 9b 3d b9 46 04 c0
       0.20302121 -0.013992555 0.07574996 -2.0668166
0001d0 24 bb 59 3e 49 82 fc 3e ac 85 3d be 30 5f 0e bd
       0.21262795 0.4931815 -0.18508023 -0.034758747
0001e0 3a 2f 9b be f6 b7 d1 be f9 18 2c bc b7 0f 3c 3f
       -0.30309469 -0.40960664 -0.010504001 0.7346148
0001f0 53 61 db bf 2f f2 01 c0 2d e3 03 c0 92 85 61 3f
       -1.7139076 -2.0304067 -2.0607407 0.8809444
000200 b4 84 80 be 4d c1 01 3f 31 49 86 bd c7 30 21 bf
       -0.25101244 0.5068558 -0.06556929 -0.62965053
000210 22 c7 4f bf 7e d8 20 bf dd 32 bc 3e 49 8e ec 3e
       -0.8116323 -0.6283034 0.36757556 0.46202305
000220 ab c1 69 3e 27 85 56 bd e1 f6 0a 3f 6f 11 8b bf
       0.22827785 -0.052373078 0.5428296 -1.0864695
000230 21 3c 15 bb f3 fd c5 bf a5 db d3 bf 9d 7e 2b 3f
       -0.0022771435 -1.5468124 -1.6551405 0.6699007
000240 85 04 96 3d d6 83 4e 3d 63 1a 0c bf c1 50 b3 be
       0.07325081 0.050418697 -0.5472776 -0.35022548
000250 be a3 71 3c 39 6e 22 3d 96 94 28 3f 0a 6c dc bf
       0.014748512 0.039655898 0.65851724 -1.7220471
000260 67 54 5b 3e 0e d0 3f bf d7 50 80 be ca 78 13 3e
       0.21418916 -0.7492684 -0.25061676 0.14401546
000270 23 e8 e8 bf a4 85 88 3f a5 65 dd bd a5 6f c6 3e
       -1.8195843 1.0665784 -0.10810403 0.38757053

l3.bias f4 [20]
000000 9f 57 1e 3e ae 68 22 be 5c 03 e9 3e eb 0a 41 3e
       0.15463112 -0.15860245 0.45510375 0.18851821
000010 eb a5 19 be 0a 58 45 3d 50 f9 8b be 64 93 ea 3e
       -0.15004699 0.048179664 -0.27338648 0.45815575
000020 8e 1b c6 3e 81 ea 8a 3b 31 6a 07 be 3b 3d 11 3e
       0.38692898 0.004239381 -0.13224103 0.14183514
000030 ec 01 6f be 5c 57 cf be 42 6d a2 be 1a ad 16 3f
       -0.23340577 -0.40496337 -0.31723982 0.5885788
000040 79 8f 1a be 47 34 be 3e 96 45 34 bf c5 08 47 be
       -0.15093793 0.3714926 -0.7041868 -0.19436939
